student_x4_balanced_50ep.pt (torch, 268658 bytes, 6 tensors)

body.0.weight f4 [64, 3, 3, 3]
000000 af d2 a4 3c fb e4 d8 3d ad 88 b1 bc db 46 0a 3e
       0.020119993 0.105905496 -0.021671617 0.13503592
000010 dc 16 d7 bc fc 14 ab 3d 7c 52 cd bd 66 37 c2 3d
       -0.026256017 0.08353612 -0.10025498 0.09483223
000020 b6 13 19 3e d1 90 80 3d 84 d9 03 3e d7 53 65 bd
       0.14948925 0.062776215 0.12875944 -0.05598816
000030 08 a2 f1 3d ae d1 a5 3b 32 b9 71 bd 71 ad ab 39
       0.11798483 0.005060396 -0.059014507 0.00032744886
000040 50 df ea bd b5 cc 2a 3e 67 2a f5 bc 9a 6e ce bd
       -0.11468375 0.16679652 -0.029927446 -0.10079689
000050 e7 97 26 3d 1c 4e b6 bc 0d be db bd 25 8c 9c bc
       0.04067221 -0.022254042 -0.10729609 -0.019109795
000060 a4 d2 2b be 1b 18 ec bd 1e da 0c be fa 2c 67 3d
       -0.16779572 -0.11528035 -0.1375508 0.056439377
000070 36 50 1e 3e 2c 51 14 be c2 89 3f bd 98 71 ca bd
       0.15460286 -0.1448409 -0.046762235 -0.098849475
000080 10 ee 18 be 4e 61 f6 bd 7a d4 ad 3d d5 89 98 bd
       -0.14934564 -0.12030278 0.08487792 -0.074481644
000090 d0 87 13 3e 98 b4 04 be a6 07 05 3e e5 4f 34 3e
       0.14407277 -0.12959516 0.12991199 0.17608602
0000a0 5c ef af 3d 55 ac a3 bc 33 cd 96 3d 48 f0 9e 3d
       0.08590576 -0.019979635 0.073633574 0.07760674
0000b0 a8 09 f8 3d c2 c9 36 3e 74 36 7c bd e9 24 49 3c
       0.12111217 0.17850402 -0.061575368 0.0122768665
0000c0 a7 46 0f be 4a 95 a4 3b 07 68 30 be a2 d1 97 3d
       -0.13991795 0.0050226795 -0.17227183 0.07413031
0000d0 de ec 3d 3e 48 bf 58 bd 3b 8e 02 3e 93 fd 82 bd
       0.18547389 -0.052916795 0.12749569 -0.06396022
0000e0 40 27 19 be b2 01 9d 3d ef 8d 8a 3d a5 b6 14 bd
       -0.14956379 0.07666339 0.06765353 -0.036306996
0000f0 66 64 3f 3e 2e c9 8b 3d 32 f7 79 3d d0 d8 1c bd
       0.18690643 0.06825481 0.06102676 -0.038292706
000100 6f f6 31 be ec 08 cb 39 1b 1c 17 3e a0 41 e1 3d
       -0.17379163 0.00038725825 0.14756815 0.10998845
000110 3f ae 05 bc ed df 34 3d 3a 2e 14 3e df 6f 09 3d
       -0.008159219 0.044158865 0.14470759 0.033553954
000120 95 1d 40 3d b7 f5 37 3d b0 88 36 be 84 7d 31 3e
       0.04690321 0.044912066 -0.1782558 0.17333037
000130 cf 56 12 3e 1e 75 1f 3d db f1 67 bd 43 5b d5 bb
       0.14290927 0.03893005 -0.056627136 -0.0065111234
000140 c2 fc a6 3d 5c 68 3a 3d 3a 9b 03 3e 06 ca 96 3b
       0.081536785 0.04550968 0.12852183 0.00460172
000150 9f 6e 51 bd e6 ee 31 be 8d 13 15 3e 3b f3 12 3d
       -0.051130887 -0.17376289 0.1455824 0.035876494
000160 1a 30 27 be d6 6d 07 3d 13 5b 08 3e 88 26 3d be
       -0.16326943 0.033063732 0.13315992 -0.1847173
000170 54 76 c4 3b 3e 1a 87 bd ad 64 e3 3d c4 11 98 bb
       0.005995551 -0.06596802 0.11103187 -0.0046407897
000180 16 ac 05 3e 27 25 e6 bd ed a6 28 3d e4 86 c4 3d
       0.13053927 -0.11237555 0.041174818 0.09596041
000190 68 2f 26 be ac 11 3c be 7f 85 b9 3d e6 97 90 bc
       -0.16229022 -0.18366116 0.090586655 -0.017650556
0001a0 7c ab c1 3d 31 ac c6 3d ae c2 bc bc d5 18 fb bd
       0.09456536 0.09700812 -0.02304205 -0.12260596
0001b0 92 62 e3 3b 9c 6f 18 be 7a 00 12 be 38 a5 08 be
       0.0069392407 -0.14886326 -0.14257994 -0.13344276
0001c0 31 4d 42 3e 98 ef f2 bd fd 76 26 3e 06 5d 0b 3d
       0.18974759 -0.11862105 0.16256328 0.03402426
0001d0 7d bd 02 3e 4d b6 f3 bd 67 4d 96 3d 62 83 fc 3d
       0.12767597 -0.119000055 0.07338982 0.12329747
0001e0 0e 33 90 bd b2 65 cb bd 84 be 31 bb a2 ca 22 bd
       -0.07040988 -0.09931506 -0.0027121613 -0.039744027
0001f0 1a 6c f7 bd 65 ff e5 3d 92 da d2 bd 93 b7 8d bd
       -0.120811656 0.11230353 -0.10295595 -0.0691978
000200 db 68 40 3e a1 e6 af bd 8d aa 34 3e 58 db 41 be
       0.18789999 -0.08588911 0.17643185 -0.18931329
000210 d2 6d 37 bd 13 ae d3 3d ec a9 40 be c9 3d 9b bd
       -0.044782467 0.103359364 -0.1881482 -0.07580144
000220 e8 75 a2 3d bc c1 26 3d a3 c0 b0 bd 92 19 2f bc
       0.07932645 0.040712103 -0.086304925 -0.010687249
000230 b0 f5 61 3d a4 d2 9a 3d 2e 24 6f bd cc 17 2c 3d
       0.055165946 0.07559708 -0.058384113 0.042014882
000240 18 6b 11 3e 78 55 8b b7 43 92 14 be fa 07 5c bd
       0.1420101 -1.660989e-05 -0.1450892 -0.053718545
000250 9c b8 21 3d 78 b0 13 be aa a6 e5 bc 15 55 72 3d
       0.039482698 -0.14422786 -0.028033573 0.05916317
000260 d9 8f 95 3d 4f 1c 3a 3e 50 04 e2 3d 17 52 35 be
       0.073028274 0.18174861 0.11035979 -0.17707096
000270 09 2b 44 3e e2 cf 98 bd af cb e8 3d 84 2c ca 3c
       0.19157042 -0.074615255 0.113669746 0.02467943
000280 70 1f ef bd ed c4 9f bd 71 66 cf bd f6 5b 40 3d
       -0.11675918 -0.078012325 -0.10126961 0.0469627
000290 fb a5 2b 3e d5 89 8f 3d 41 80 a6 bd af 31 49 bd
       0.16762535 0.07008711 -0.08129931 -0.049119648
0002a0 60 90 29 be d6 40 12 be d5 36 42 3e 18 89 d6 bd
       -0.16558981 -0.14282545 0.1896623 -0.10475367
0002b0 92 d5 c8 bd 65 f6 14 be a1 04 2f be 46 4f 3c 3e
       -0.0980636 -0.14547117 -0.1709161 0.18389615
0002c0 ff 1e 38 be 41 bb 3f 3e 76 58 25 3d 4d 95 29 3d
       -0.17980574 0.18723775 0.040367566 0.04140215
0002d0 72 d5 29 3e d5 e9 2d 3e e8 a4 2f bd 71 83 d6 3b
       0.16585329 0.16983731 -0.042881876 0.0065464308
0002e0 79 5c ba 3d 2c 14 1a be cd 69 3a 3d d1 c4 30 be
       0.09099669 -0.15046757 0.045511056 -0.1726258
0002f0 f5 df d0 bd 2b 8a 44 be b8 33 b4 3d ae bf 7a 3d
       -0.101989664 -0.19193332 0.08798927 0.061217956
000300 c0 ba 17 3e 40 3d 25 3e 6b b3 3b bc be 18 75 3d
       0.14817333 0.16136646 -0.011456351 0.05983805
000310 9b 5d 6c bd 13 95 76 bd d0 d2 f4 3d ea c3 8f 3d
       -0.057706457 -0.060200762 0.11954272 0.070197895
000320 57 fa b4 bc f5 21 23 bc 4f 94 20 3e 3b 03 1f be
       -0.022092028 -0.009956826 0.15681575 -0.15528576
000330 50 b2 09 3c 85 60 10 be 46 b7 d8 bc 4e 11 cb 3d
       0.008404329 -0.1409932 -0.02645458 0.0991541
000340 68 bb c2 3c c6 df 08 3d ee f5 21 bc a0 24 0d 3e
       0.023771003 0.033416532 -0.009885294 0.13783503
000350 08 7b b4 bb 3d d2 7f 3d eb 41 e5 3d 86 be 3d 3e
       -0.0055078305 0.06245636 0.111942135 0.1852971
000360 28 c5 24 3e 52 12 fc 3d 25 55 03 be 1b cc a6 bd
       0.16090834 0.12308182 -0.12825449 -0.08144399
000370 19 af 1e 3e da ec 97 bd ba 5d b3 bd 70 c2 b5 bd
       0.15496482 -0.07418223 -0.08758111 -0.08874977
000380 2b 8e eb bc d3 b9 e5 3d 43 ff e3 bd 61 88 d0 bd
       -0.028754314 0.11217084 -0.11132672 -0.10182262
000390 15 e7 13 be e2 a2 9d bd f8 ac e0 bd 67 94 48 bd
       -0.1444362 -0.07697083 -0.10970491 -0.048969653
0003a0 1e 1d 08 3e 79 f2 8b 3d b4 4f 04 be 51 78 c6 bc
       0.13292357 0.06833357 -0.1292103 -0.024227293
0003b0 14 0d 1e 3e 9d 13 16 3e a8 b6 ff 3d 50 03 e7 3d
       0.15434676 0.1465592 0.12486011 0.11279929
0003c0 1d 29 fe bc d4 34 05 3e 88 43 5e bd df bf 25 3e
       -0.031025464 0.13008434 -0.05426362 0.16186474
0003d0 ae e5 ac bd 7e ef dc 3d 1e 35 4c bd 5a 12 c4 3d
       -0.084422454 0.10787867 -0.049855344 0.09573813
0003e0 7b f0 3c 3e 5e 96 83 bd 8d b3 4b 3d a4 39 33 bb
       0.18451111 -0.06425165 0.04973178 -0.002734759
0003f0 2d 74 17 3e 96 a0 9f 3d 9e 3e e8 bc 40 a7 66 bd
       0.14790411 0.07794301 -0.02835017 -0.056311846

body.0.bias f4 [64]
000000 e4 a6 d8 3d 43 a7 13 3e 70 c0 0e be 72 3d fb 3c
       0.10578707 0.14419274 -0.13940597 0.030668948
000010 35 9f 9c 3d 7b d7 fd 3d 69 02 97 bd 61 75 9b bc
       0.07647554 0.12394615 -0.073735066 -0.018976869
000020 0f 54 05 3e 23 11 ad 3c 61 18 7f bd 96 a3 7e 3d
       0.13020347 0.021126335 -0.06227911 0.062167726
000030 aa b4 28 3d d3 af 25 3e 17 95 a1 bd 12 39 3b 3e
       0.04118792 0.16180353 -0.07889765 0.1828349
000040 25 33 2f 3d 47 91 ca bd 7f 59 1a 3e 76 00 81 bd
       0.042773385 -0.09890991 0.15073203 -0.06298916
000050 f4 eb 0a be e5 f1 6d 3d 71 39 00 3b c5 0e 24 3b
       -0.13566571 0.058092017 0.0019565488 0.0025033217
000060 59 dc 0e 3d 11 99 00 bd 89 7c d2 bc b7 af cb 3d
       0.03487811 -0.031395976 -0.025694149 0.09945624
000070 91 ee fe bc a2 cf 2d be cd 9f 59 3d 6d a9 dd 3d
       -0.031119617 -0.16973737 0.053130914 0.10823331
000080 c3 97 18 bd 73 d6 26 be 63 13 26 be a3 33 41 3e
       -0.037254106 -0.16292743 -0.16218333 0.18867354
000090 a9 85 de bd f4 7b 00 3e 66 cb 13 3d 13 10 e9 bd
       -0.108653374 0.12547284 0.036082648 -0.11380019
0000a0 06 33 9d 3d fa 3e 1d 3c 47 53 72 bd 22 26 a3 bd
       0.076757476 0.009597534 -0.05916145 -0.07966258
0000b0 0f f8 29 be 03 98 88 bd 4b 15 2c 3e da fd 09 bd
       -0.16598533 -0.06669619 0.16804998 -0.033689357
0000c0 ab 08 10 bb 5f 65 0b bd 44 8d 39 be b2 d3 36 3e
       -0.0021977823 -0.034032222 -0.18120295 0.17854193
0000d0 93 f4 be 3d e9 b7 df 3d e0 1f 84 bc ec 33 bb ba
       0.093239926 0.1092375 -0.01612848 -0.0014282442
0000e0 1f 70 eb bd c1 52 ba 3b 4d ab 11 be 27 90 43 be
       -0.11495995 0.0056861346 -0.14225502 -0.19097959
0000f0 28 40 bd bb da d8 c2 bc 81 85 9a bd d1 89 1d 3e
       -0.0057754703 -0.023785044 -0.07544995 0.15384604

body.2.weight f4 [64, 64, 3, 3]
000000 ab d0 c5 b9 bb 3b fe 3c 6b be 49 3c 50 ab 7f 3c
       -0.00037730238 0.031034341 0.012313466 0.015604809
000010 16 e9 0c bb 80 08 4e bb b2 eb 05 3d 7b 41 64 3c
       -0.0021501235 -0.0031438172 0.03269548 0.013931627
000020 2b 03 ab 3c 20 18 1d 3c 04 27 1b bd 7c ea 1d 3d
       0.020875534 0.009588271 -0.037879005 0.0385537
000030 92 65 06 bd eb 84 c6 3b 78 47 27 3d e6 e4 38 bc
       -0.03281171 0.0060583255 0.040839642 -0.011285042
000040 fb f8 5f 3c d6 1d b9 ba fb 47 14 bc 56 f6 7c bb
       0.013670201 -0.0014123272 -0.009050365 -0.0038598976
000050 fe 5f 16 3d c6 49 28 3c 0e e1 11 3d 76 93 f3 bc
       0.03671264 0.010271495 0.03561502 -0.0297334
000060 43 93 13 bd 8b 09 58 bc 96 67 c6 3c 9a 0b 20 3d
       -0.03602911 -0.013185869 0.024219315 0.039073564
000070 1b ad 6e 3c 00 96 dd 3c e0 53 bd 3b 24 c6 26 bd
       0.014567639 0.027049065 0.005777821 -0.040716305
000080 90 05 74 3c d6 8b c1 bc 8c 8f 24 3d 16 6b c8 bc
       0.014893904 -0.02362625 0.04017596 -0.024465125
000090 d3 4d 17 bd 90 bc c6 bc 90 45 29 3c 80 c8 1e 3c
       -0.036939453 -0.024259835 0.010331526 0.009691358
0000a0 76 c6 9c 3b 96 af 22 bb 38 09 f4 3c cb f5 e6 bc
       0.0047844006 -0.0024823896 0.029789552 -0.028193375
0000b0 6e 8b f6 3c 03 ce b2 3c 1a a1 0c bd 2b 78 ee 3b
       0.030095782 0.02182675 -0.034333326 0.0072775087
0000c0 e6 e0 0b 3c ab f8 23 ba 56 52 18 bb 36 28 9b 3c
       0.008537507 -0.0006255011 -0.0023242435 0.018940073
0000d0 1b 22 f1 bc 53 9d 84 3c 50 bb e2 bc 18 92 8a 3c
       -0.029435208 0.0161883 -0.027677208 0.016915366
0000e0 ea 99 1e 3d 00 35 1e bd 56 1d 8e 39 27 48 24 3d
       0.038721003 -0.038624763 0.00027106208 0.040107872
0000f0 18 a6 03 bd db 01 ab 3c c0 e4 0f 3b 08 66 9a 3c
       -0.03214082 0.020874908 0.0021956414 0.01884748
000100 e6 9b 8c 3c 96 f2 19 3b 5b f9 65 3c 56 fa 55 bc
       0.017164182 0.002349054 0.014036502 -0.013060173
000110 c8 98 fe 3c 0e e3 e1 bc 56 4f d9 bc c6 ba e8 bc
       0.031078711 -0.027574088 -0.026527088 -0.028409373
000120 80 4c 1e 3c 5e fd a5 3c db 17 2f bc 2c b5 19 3d
       0.009661794 0.020262416 -0.01068684 0.037526295
000130 53 57 a5 bc 20 f4 a1 bc 40 2c 09 bc 4b 8f 43 3c
       -0.020183241 -0.019769728 -0.008372366 0.011936019
000140 93 e0 e6 3c d6 30 d9 3c 30 19 4f bc 76 7a 8e 3c
       0.028183257 0.026512545 -0.0126402825 0.017392378
000150 a3 f7 bb bc e0 26 21 3c 56 71 5c 3c 12 be 21 3d
       -0.02294523 0.009835929 0.013454756 0.039487906
000160 02 45 09 3d 0b 35 90 3c 7b 02 9d bc eb bf 2a bc
       0.033513077 0.017603418 -0.019166222 -0.010421733
000170 eb a7 df 3b 80 1b 62 bb c6 d7 81 3c eb 0d 84 bb
       0.0068254373 -0.0034501255 0.01584996 -0.0040299795
000180 56 a8 02 3d ab 0a c4 3a 9b 22 d0 bc d3 a6 dc bc
       0.03189882 0.0014956793 -0.025407126 -0.026935017
000190 03 2d 92 3c ab f3 4b bb 8b ff d6 bc 80 01 8d 3b
       0.017843729 -0.003112058 -0.0262449 0.0043031573
0001a0 ee 7b fd 3c a0 fa 1e bc b0 97 bd 3c 46 03 1b bc
       0.030942883 -0.009703308 0.02314362 -0.00946123
0001b0 be 70 94 bc 56 b7 de bb 76 fa b4 3b b0 49 96 3c
       -0.018120166 -0.0067967577 0.0055230213 0.018345684
0001c0 c6 f4 1a 3d d0 2e 23 3c 80 d5 8a 3b cb ee 44 3c
       0.03783109 0.009959891 0.004236877 0.012019823
0001d0 60 1b a5 bb d3 c7 29 3d 16 92 03 bd 2b 43 33 3c
       -0.0050386637 0.041450333 -0.03212174 0.010941307
0001e0 1e 8b 1a 3d ab 2b fe 3b 78 c4 c9 3c 96 7b cb 3c
       0.03773033 0.0077566705 0.024629816 0.024839204
0001f0 e0 bd ea bc 64 57 1e bd 54 1c 09 3d 8e 18 86 3c
       -0.028654993 -0.03865756 0.03347428 0.01636913
000200 76 8d 29 bc b3 76 92 3c 56 c6 98 bc cb 95 e6 bb
       -0.010348668 0.017878866 -0.018649261 -0.0070368997
000210 e0 7a e7 3b cb 4d c5 bc 40 47 e1 3c ab 38 d8 3b
       0.0070642084 -0.024084946 0.027499795 0.006598552
000220 96 c3 ad 3b e8 e6 a5 bc 90 2f 12 bd 42 cf 20 3d
       0.0053028567 -0.020251706 -0.03568989 0.039260156
000230 a0 fa ca bb f6 e6 ae bb 6a fc 1d 3d 7e 2d 0c 3d
       -0.0061944276 -0.0053375913 0.0385708 0.034223072
000240 6a f0 04 bd b6 91 61 bc 08 bc a6 3c fb 96 cc bc
       -0.03245584 -0.01376765 0.020353332 -0.024974337
000250 db 6a 5e bc 08 c1 a6 bc fe 62 8c bc 06 ef 8f 3c
       -0.013575281 -0.020355716 -0.017137047 0.01757003
000260 a6 e4 0e 3d 16 f7 de bc 56 8c e7 bc d3 f5 ee bc
       0.034886025 -0.02721743 -0.02826516 -0.029169952
000270 fa 38 0d bd bb 4a f7 3c 66 0f 00 bc 4b 4e ed bb
       -0.034478165 0.030187001 -0.007816171 -0.0072419993
000280 4c 83 25 bd d6 4e ae ba 36 e6 a1 3c 00 04 00 3d
       -0.040408418 -0.0013298641 0.019763093 0.031253815
000290 96 a3 da bb ae 91 e2 bc b6 00 00 3c 56 9b 81 ba
       -0.006672333 -0.027657356 0.0078126695 -0.0009888213
0002a0 c0 d2 6d 3b 00 e8 29 3d 83 a1 9e bc 0e 98 8d bc
       0.0036288947 0.041481018 -0.019364124 -0.01728442
0002b0 16 cd 2e bb 6b 94 68 bc 50 0f 1f bd c0 be a8 bb
       -0.0026672534 -0.014195542 -0.038832963 -0.0051496923
0002c0 a3 2f 91 bc 18 be dd bc e0 dc 86 3c 33 54 f2 bc
       -0.01772291 -0.027068183 0.016462743 -0.029581165
0002d0 fe cb bc 3c 18 37 9c bc 3b 95 93 3c 0e 1c fe bc
       0.02304649 -0.01906924 0.018015495 -0.031019237
0002e0 fb a8 91 3c 00 63 e4 bc 40 d8 80 3c d6 15 4c bc
       0.017780771 -0.027879238 0.015728116 -0.012456378
0002f0 6b f3 2d bc b6 45 41 bc dc ef 25 bd 0e 00 23 3d
       -0.010617117 -0.011796406 -0.04051195 0.039794974
000300 ce e7 04 3d e0 4b 09 bd 22 ee 02 3d 2b 84 94 bc
       0.03244763 -0.033519626 0.031965382 -0.018129429
000310 b6 01 e4 bb 5e e4 eb bc 56 ec 26 bb 60 bb da 3b
       -0.006958212 -0.028795417 -0.0025470457 0.006675169
000320 2b a7 0e bc f6 e8 e3 3b b0 fd 42 3c a3 d4 18 bd
       -0.008706848 0.0069552613 0.011901304 -0.03731216
000330 b6 93 a2 bc 0b b0 8b bc 0e 61 29 3d 60 a2 83 3b
       -0.019845825 -0.017051717 0.041352324 0.0040171593
000340 96 3f 1e 3c f6 08 9d 3b 06 e3 d4 bc a6 e0 08 bd
       0.009658715 0.004792328 -0.02598716 -0.033417366
000350 ff 8f 0c bd eb 76 e8 bb cb 95 f3 bb b2 02 06 3d
       -0.034317013 -0.0070942543 -0.007433628 0.032717414
000360 c6 bc 66 3c 5e 01 c5 3c e0 5f 7d bc 63 ea 1c 3d
       0.014083093 0.024048503 -0.015464753 0.038309466
000370 b0 d3 18 bc 2b 16 05 3b 50 f2 87 bc 6e a6 ee 3c
       -0.009327814 0.0020307403 -0.016595036 0.029132094
000380 b6 a3 8b bc 04 ec 0e 3d a0 bd 89 bc 40 1a 73 bc
       -0.017045837 0.03489305 -0.016814053 -0.014837801
000390 06 cf 06 3c 93 54 f9 3c 93 f1 eb 3c 6f bf 16 bd
       0.008228069 0.030435836 0.028801715 -0.03680366
0003a0 6b 55 7a bc 96 3d 25 3b 2e 72 e9 bc e3 59 fb 3c
       -0.015279154 0.002521371 -0.028496828 0.03068251
0003b0 80 1b a7 3c 6e a0 10 bd da 28 04 3d 40 b0 90 bb
       0.020398855 -0.035309248 0.03226552 -0.004415542
0003c0 ab 7c 0d bc 7b 76 c3 3c 66 dc ef 3c c7 4b 1b bd
       -0.00863568 0.023860207 0.029279899 -0.037914064
0003d0 1e da f9 bc f8 83 c5 bc c6 3d e2 bc bb 14 7b bc
       -0.030499514 -0.02411078 -0.027617346 -0.015324767
0003e0 3c c5 10 3d d6 a3 92 bb 00 b2 df b9 20 19 80 3c
       0.035344347 -0.004475097 -0.00042666495 0.01563698
0003f0 f6 d2 9e bb eb 07 6c 3b 60 a3 a8 bb eb 1d 1e 3d
       -0.004846926 0.0036015462 -0.005146429 0.03860275

body.2.bias f4 [64]
000000 a8 6a 06 3d 6e 30 f4 bc 98 95 c7 bc 6c f5 25 bd
       0.03281656 -0.02980825 -0.024363324 -0.040517256
000010 f2 14 01 3d c0 65 3f bb 06 46 e0 bc 4e 96 a6 3c
       0.031514116 -0.0029204935 -0.02737714 0.020335343
000020 5b d5 68 bc ab 33 43 bb e0 0f 4d bc 4f e6 21 bd
       -0.014211024 -0.0029785435 -0.012515992 -0.03952628
000030 98 6c b8 bc 33 c5 04 bd 23 28 16 3d ab da 46 39
       -0.022512719 -0.032414626 0.03665937 0.00018964212
000040 a6 fe 30 3c d0 0c 0d bd 40 a0 a6 3c be 79 f4 bc
       0.0108029 -0.034436047 0.020340085 -0.029843207
000050 e2 e1 08 3d 5a 5d 29 bd 00 0b 66 bb 40 a2 c1 3c
       0.033418544 -0.041348793 -0.0035101771 0.023636937
000060 48 92 80 3c 5b 0e 7c 3c 7b 41 27 bc c0 70 e5 3c
       0.015694752 0.015384282 -0.010208483 0.028007865
000070 6b 85 56 bc 6b 09 fb bb 50 b1 65 bc 56 f0 cb ba
       -0.013093333 -0.007661035 -0.014019325 -0.0015559297
000080 20 97 22 3d 40 93 a0 3b 16 e0 a2 bb c6 6b 13 3d
       0.039694905 0.004900366 -0.004970561 0.035991453
000090 00 e0 07 bb e0 ab 46 bc 06 10 e8 bc 16 7d d2 bb
       -0.002073288 -0.012125939 -0.028327953 -0.006423603
0000a0 10 64 23 3c 40 33 e5 bc c6 6c 91 3c 96 9c 8e 3b
       0.009972587 -0.02797854 0.017752063 0.0043521626
0000b0 e0 11 24 bd 1b be 16 bd b7 e3 1c bd 6b d1 d1 3c
       -0.04005611 -0.036802392 -0.038303103 0.025612554
0000c0 be 2f dc bc 60 d3 8d 3b e6 08 48 bc a8 2c a9 bc
       -0.026878234 0.0043281764 -0.012209153 -0.020651177
0000d0 cf a8 1c 3d 48 d4 a3 3c 9b 4a 8f bc 68 d0 a4 3c
       0.038246926 0.019998685 -0.01749163 0.020118907
0000e0 ef 05 1c bd 80 2e b9 bb 6a c5 0d 3d fb 90 99 3c
       -0.038091596 -0.005651295 0.034612097 0.01874589
0000f0 f6 cd 91 3b 6b 2d 13 3d aa ac 0c bd e0 35 14 bc
       0.0044496013 0.035931986 -0.034344353 -0.009046048

body.4.weight f4 [48, 64, 3, 3]
000000 06 65 40 bc 7b 2c 57 bc 86 04 c5 bc 6e 97 10 3d
       -0.011742836 -0.013133164 -0.024050009 0.035300665
000010 00 fe bf 3c ab d5 da ba b6 f4 02 3d 34 9b 21 bd
       0.023436546 -0.0016695758 0.031971656 -0.039454654
000020 4a 33 10 3d 5b e0 c7 bc 60 7c f1 bc 6b 6e 29 3d
       0.035205163 -0.024398973 -0.029478252 0.04136507
000030 7b 36 1a 3d 1e 13 f6 3c ea 97 21 bd 42 1d 20 3d
       0.037649613 0.030038413 -0.039451517 0.039090402
000040 6b 9b 7f 3b c4 8c 12 bd 80 50 82 3b e0 f0 f7 3b
       0.0039002548 -0.035778776 0.0039768815 0.0075665563
000050 86 5b bd bc 38 f1 e4 3c be bf ad bc fb d9 dc 3c
       -0.02311493 0.027947053 -0.021209594 0.02695941
000060 5b a9 02 3c 00 6f 09 3c 1e 5e ac 3c d7 ef 0d 3d
       0.007974948 0.008388281 0.021040972 0.034652557
000070 8b ac e7 3b 16 70 59 bb 56 71 6d bc 66 95 d4 3c
       0.0070701293 -0.003317838 -0.014492353 0.025950145
000080 b8 40 24 bd c0 c9 f1 3b f6 d3 87 bb 90 8f 23 3d
       -0.040100783 0.007378787 -0.0041451408 0.039931834
000090 c0 32 a9 3b c0 4a 04 3c 1b 23 5a bc f8 01 ed bc
       0.0051635206 0.008074462 -0.013314034 -0.028931603
0000a0 63 cb 8c 3c 76 fc 8f 3b 2c 4e 07 bd e2 28 1b bd
       0.017186826 0.0043941094 -0.033033535 -0.037880786
0000b0 33 72 fe 3c c6 ad 33 bc 0b df 7c bc 40 e0 46 bb
       0.031060314 -0.010966724 -0.015434037 -0.0030346066
0000c0 7b 9f 6c bc 80 a1 49 3c 67 8d 15 3d 76 10 c7 3b
       -0.01444232 0.012306571 0.036511805 0.0060749603
0000d0 10 5c 99 3c 62 9f 24 bd 06 8e 22 3d 84 75 03 bd
       0.018720657 -0.04019106 0.039686225 -0.032094494
0000e0 86 c3 57 bc 60 12 8a bc d6 13 7e 3c 56 55 65 ba
       -0.013169175 -0.016854465 0.015507659 -0.0008748373
0000f0 d8 08 de 3c 6b 9d 8f bc 2e 92 bb 3c a6 d3 7c 3c
       0.027103826 -0.017531117 0.022896852 0.01543132
000100 e6 52 af bc f6 35 f0 3b 03 ec e2 3c 2b 2c 6e 3c
       -0.021401834 0.0073306514 0.02770043 0.014536898
000110 3e 7e 8a bc 4e b3 29 bd 5b f3 9d 3c 2c cf 18 bd
       -0.0169059 -0.041430764 0.01928108 -0.03730695
000120 3e 96 ac 3c c6 e9 62 bc f6 ae 71 bc 6b 86 18 3b
       0.021067735 -0.013849681 -0.014751187 0.0023273479
000130 8e d8 e2 bc 0e 1a 9f 3c 40 39 0c bd 86 95 8e bc
       -0.027691152 0.019421604 -0.034234285 -0.017405283
000140 50 25 44 bc 60 28 0d bc 0b 25 18 bd bb 91 0b 3d
       -0.011971787 -0.008615583 -0.037144702 0.034074526
000150 af c9 03 bd 46 08 9d bc ee aa 16 3d 96 fd 7d bb
       -0.032174762 -0.019168984 0.036784105 -0.0038755885
000160 80 bd 87 ba cb 30 d5 3b a0 eb 88 bb 60 01 d0 3b
       -0.0010356158 0.0065060607 -0.0041784793 0.00634782
000170 b6 17 0d 3c d0 ea 81 3c 96 1f 7d 3c 10 92 a1 3c
       0.00861161 0.015859038 0.015449425 0.019722968
000180 80 87 a1 bc 50 ab 87 3c 30 b1 09 3d db 31 af 3c
       -0.019717932 0.01656118 0.033616245 0.021386078
000190 97 73 19 3d 40 67 06 bd cb 6d 3d 3c 48 92 b2 3c
       0.03746375 -0.03281331 0.011561821 0.021798268
0001a0 56 7f 33 bb 68 78 f4 bc 40 3b ae bb df 45 05 3d
       -0.002738913 -0.02984257 -0.0053171217 0.032537337
0001b0 d3 3b d8 bc ac 17 29 3d d6 1b df ba 56 a1 d8 3b
       -0.026395714 0.04128234 -0.0017021846 0.0066110296
0001c0 fb 43 a3 bc a6 c9 20 3c 40 1b b1 bc c8 0c ca 3c
       -0.019929877 0.009813702 -0.02161944 0.024664298
0001d0 d3 8c 9f 3c b6 dd 08 bc 36 46 f0 3c 8e 4e c9 bc
       0.01947633 -0.008353641 0.029330354 -0.02457359
0001e0 46 b1 96 3c 83 0b de bc 80 fe 98 3a 2a da 0d 3d
       0.018395077 -0.027105099 0.0011672527 0.034631886
0001f0 9b 5c 04 3d 56 c2 98 3c d0 00 17 bd 10 e4 14 3d
       0.032314878 0.018647354 -0.03686601 0.03635031
000200 f6 61 ab 3b 68 cd 24 3d 36 a5 25 bd 36 d0 59 3c
       0.0052301837 0.040234953 -0.04044076 0.01329427
000210 88 98 80 bc a0 26 d2 bc 86 0e 14 3d be 37 eb bc
       -0.015697733 -0.025653183 0.036146663 -0.028713103
000220 f3 52 90 3c d6 3c ad 3a 27 c2 1a bd 56 4a b9 3c
       0.017617678 0.0013216983 -0.037782814 0.022618454
000230 4e 98 ac 3c 0e f4 8c 3c 9e b6 29 bd ab 6e b0 ba
       0.021068718 0.017206218 -0.041433923 -0.0013460716
000240 e6 00 e0 bc 5b 81 eb 3c 00 83 7a bb 17 73 1f bd
       -0.027344178 0.028748205 -0.0038225055 -0.038928118
000250 68 5a e5 3c 66 32 04 bd e8 19 9b 3c 66 c5 90 bc
       0.02799721 -0.032274626 0.018933252 -0.017672252
000260 be df f2 3c ee 00 ce 3c a0 74 e7 3c 16 48 bf bb
       0.029647704 0.025146928 0.028253853 -0.0058374507
000270 eb bc e4 bc db 73 79 3c 38 ec 03 bd b6 f8 17 bd
       -0.027922114 0.015225376 -0.032207698 -0.037102424
000280 16 53 a4 bc 46 d5 81 bc e4 06 22 3d d6 06 22 bd
       -0.02005915 -0.015848767 0.039557353 -0.0395573
000290 16 f6 af bb bb 64 d4 3c bb c9 55 bc c3 34 0d 3d
       -0.005369912 0.025926938 -0.013048585 0.034474146
0002a0 33 dc bd bc 2b 85 2a bd 53 3e d4 bc 16 e9 7d bb
       -0.023176288 -0.041630905 -0.025908625 -0.0038743666
0002b0 00 50 17 bb da 5d 1c bd d0 c9 a8 bc 6b 17 cf bb
       -0.0023088455 -0.03817544 -0.020604044 -0.0063199303
0002c0 38 49 98 bc e0 0f 0d bd ab 74 0d 3d 00 73 77 3b
       -0.0185896 -0.034438968 0.03453509 0.0037757754
0002d0 2b d7 d3 ba f6 42 07 bc f0 2a 1c 3c 84 3b 1b 3d
       -0.0016162148 -0.008255711 0.0095317215 0.037898555
0002e0 ff 9d 01 3d 40 02 c2 bc fb 4a 24 3c 40 65 45 bc
       0.031644817 -0.023682714 0.010027642 -0.012048066
0002f0 e0 6f e8 3c a6 f2 f2 bc eb 06 13 bd d6 47 9f bc
       0.028373659 -0.02965672 -0.03589527 -0.019443434
000300 00 c8 7d 39 36 32 9b bc bb 65 e5 3c 78 89 80 bc
       0.00024202466 -0.01894484 0.02800261 -0.01569055
000310 fb d5 b5 bc c6 65 9a 3c 80 d1 1c 3c ab 42 a7 3b
       -0.02219676 0.018847357 0.009571433 0.005104383
000320 a2 8f 27 bd 06 af bd 3c d8 6f 8d bc 93 6c 01 3d
       -0.040908463 0.023154747 -0.017265245 0.031597685
000330 86 10 21 bc 56 e0 3d 3a 40 b1 46 bc cf 20 0a bd
       -0.0098306 0.00072432065 -0.012127221 -0.033722695
000340 3f 32 18 3d d6 6b cf bb 70 48 09 bd c8 b9 b4 bc
       0.037157293 -0.0063299937 -0.033516347 -0.022061244
000350 8b 0f bf bc 6b 44 14 bd cb ad ce 3b a0 6d bf bb
       -0.023322841 -0.03619806 0.006307339 -0.0058419257
000360 57 82 07 3d a6 48 23 3d 2b c2 90 ba 9e ee 18 bd
       0.033083286 0.039864205 -0.0011044195 -0.037336938
000370 40 aa 64 bc 80 22 5d 3c 46 09 55 bc d6 25 f9 3a
       -0.013956606 0.013496995 -0.013002699 0.0019008468
000380 00 1c e5 b9 38 64 96 bc bb 1e 11 bd 8e 47 06 3d
       -0.00043699145 -0.018358335 -0.035429697 0.032783084
000390 30 9d 5f 3c 80 4b 26 3d 70 c9 73 bc 76 93 08 bc
       0.013648316 0.040599346 -0.014879569 -0.008335939
0003a0 3c aa 07 3d 16 8f 31 bb 5b de 16 bd f6 0f 8f 3b
       0.033121333 -0.0027093343 -0.03683315 0.0043659164
0003b0 3b 83 24 bd 0e 81 eb bc ab 00 c3 39 38 43 d4 3c
       -0.040164214 -0.028748062 0.00037193796 0.025910959
0003c0 53 b6 e1 bc 60 2e 3b 3c eb ba 1c 3d 08 2c df bc
       -0.02755276 0.011424631 0.038264196 -0.027242675
0003d0 e3 42 c3 bc 96 41 49 3c f6 2c b9 3b 5b d1 50 bc
       -0.023835605 0.012283703 0.0056511117 -0.012745227
0003e0 b0 bd 16 bc 03 cc b9 bc 70 11 1c bd 06 00 ae 3c
       -0.009200498 -0.022680288 -0.038102567 0.021240246
0003f0 eb 16 23 3b 1b 1a 07 bd b6 b5 f6 3b a0 d2 ec 3c
       0.0024885486 -0.03298388 0.007528986 0.028909028

body.4.bias f4 [48]
000000 6b e4 b0 3b e6 51 4b bc 36 3e f5 3c cb 04 fd bc
       0.0053983233 -0.012409663 0.029936891 -0.030886075
000010 06 ad a8 3c 9b a9 d8 bc f0 36 3a bc c3 db 8b bc
       0.020590317 -0.026448062 -0.011365637 -0.017072564
000020 cb a4 e0 bb f8 c6 05 3d db 79 10 3c e6 b4 d1 3c
       -0.0068555824 0.032660455 0.008818115 0.025598954
000030 6b 03 fe 3c 9b 35 28 3d f0 06 21 3c 08 f4 15 bd
       0.03100749 0.041066747 0.009828314 -0.03660968
000040 2b 76 4d bc 3b 0e 6d 3c be 39 e6 3c eb 3b b7 3c
       -0.0125403805 0.014468725 0.028103705 0.022367438
000050 63 7a 1d 3d eb f2 7d bb 13 3d a2 bc 00 fe a3 bc
       0.038446795 -0.0038749527 -0.019804513 -0.020018578
000060 80 04 f2 3c 8e f8 1c bd 00 78 ef 3b fe ea c3 bc
       0.029543161 -0.038322978 0.0073080063 -0.023915764
000070 c8 9e a4 3c c8 e1 8d bc 70 98 74 3c e7 6f 27 bd
       0.020095244 -0.017319575 0.014928922 -0.040878203
000080 b0 3c 5d bc b3 9a 12 3d 1a fe 0f 3d 06 a3 bd 3c
       -0.013503239 0.035792064 0.03515444 0.023149025
000090 d3 40 80 3c 4b 58 ba 3c 8b 41 fd bc 9e 52 10 3d
       0.01565591 0.02274718 -0.030915042 0.03523504
0000a0 a0 67 fc 3c c0 41 a4 3c f0 20 78 bc 80 42 b5 3a
       0.030811131 0.020050883 -0.015144572 0.0013829023
0000b0 c0 44 f3 3c 7e 4a e9 bc eb 6e dc bb 7b 3d 37 3c
       0.029695868 -0.028477903 -0.0067270896 0.011184092
